model.pth (torch, 42752 bytes, 3 tensors)

linear1.weight f4 [100, 100]
000000 10 df b7 bd 83 47 62 bd e0 36 48 bd 8f 63 c2 bd
       -0.08978093 -0.05524398 -0.048880458 -0.094916455
000010 f6 d0 9c bd e3 75 37 bc ed 3a 93 bb 4e 6f 33 bd
       -0.07657044 -0.01119754 -0.0044931085 -0.04380732
000020 97 b3 aa 3c df 96 0b bd 3e 6d ba bd 32 c5 bf 3d
       0.020837588 -0.03407943 -0.091028675 0.09363784
000030 f0 71 b3 bd ff 77 ab 3d f6 f1 5a 3d 42 b4 55 3d
       -0.08761966 0.08372497 0.05345341 0.05217386
000040 62 5c c3 3d f3 6e 44 3d 13 7a b8 bd a1 ae bc bd
       0.09539105 0.047957372 -0.09007659 -0.09212995
000050 61 b0 bd 3d 44 8a 05 3d 0a be 99 3c 8b 83 bd bd
       0.09262157 0.032602564 0.018767375 -0.092536055
000060 76 18 a3 bd c4 1c be 3c 8c 6f a2 3d 57 69 16 3c
       -0.0796365 0.023207076 0.07931432 0.009180388
000070 3c d3 7b 3d b5 e8 15 bd 0f a1 c9 3c cc 80 b6 3b
       0.061480746 -0.03659888 0.024612932 0.005569553
000080 17 0f 4f bc e7 2b 95 bd 0d 6d 35 3d ef df b3 bd
       -0.012637875 -0.07283764 0.044293452 -0.08782946
000090 8e c3 92 3d 8e 2d b1 3d b5 73 bd 3d a9 e4 c1 bd
       0.07166205 0.08651267 0.09250585 -0.094674416
0000a0 f5 c8 84 bd 8b 63 9c 3d c1 7d 55 3d 59 02 d4 bb
       -0.06483642 0.07636174 0.05212188 -0.0064700064
0000b0 88 55 af bc 34 b9 63 3d 10 04 60 3d f8 b1 19 3d
       -0.02140309 0.055596545 0.054691374 0.03752324
0000c0 98 b2 c8 bd 57 74 c9 bd 24 be c4 bd e2 dc 34 3b
       -0.09799689 -0.09836643 -0.09606579 0.0027597477
0000d0 77 c9 3a 3d e1 5d 43 3d 1a 3f 6b bd 5b 11 c9 3d
       0.045602288 0.04769695 -0.057433225 0.098177634
0000e0 e8 5f ae bd 8e 2b 47 bd e8 39 ce 3c 1d b6 5a bd
       -0.085143864 -0.04862552 0.025174096 -0.053396333
0000f0 e0 42 c9 bc 3b 1d b9 bc 0b 9c 88 3d 47 c7 43 bd
       -0.024568021 -0.022596946 0.06670388 -0.047797468
000100 b0 a9 f2 3c 39 6b f0 bc 88 04 1f 3d 39 7c 0c bd
       0.029621929 -0.029348003 0.03882268 -0.034298155
000110 5e 29 b0 3b d1 61 f1 3b 33 03 ad b9 88 ab 9e 3d
       0.005376025 0.007366397 -0.00032999515 0.07747561
000120 e0 80 b0 3d 5b a6 28 bd ca 00 8d bd 00 80 99 3c
       0.08618331 -0.041174274 -0.06884916 0.018737793
000130 3e 39 87 3c 1f 0e 8d 3b 7c ce 3b 3d c5 a4 ab 3d
       0.016506787 0.004304662 0.045851216 0.08381037
000140 4c d1 a1 3d 4d 58 64 bd 31 e9 b2 3d b2 b7 98 bd
       0.07901248 -0.055748273 0.08735884 -0.07456912
000150 90 b4 55 3c eb e8 37 3c e7 d5 77 39 93 89 54 3b
       0.013043538 0.011224966 0.0002363544 0.0032430633
000160 d3 2f 1a bb 93 d7 95 bc b4 e4 ee bc e9 0e c6 bd
       -0.002352704 -0.01829127 -0.029161789 -0.09670813
000170 c0 40 c6 bd ab 08 7d 3d 75 6d 32 bd 8d a7 b8 bd
       -0.09680319 0.061775845 -0.043561418 -0.09016333
000180 46 a3 ae bd f1 da 33 3d 44 c2 32 3d bd a2 09 3d
       -0.08527236 0.04390997 0.043642297 0.033602465
000190 90 20 93 3d 39 6a 11 bd 85 05 c2 3c 56 9d 88 3d
       0.07183945 -0.035501692 0.023684273 0.066706344
0001a0 4a 53 de 3c 1d c8 62 bd b8 b6 c6 bd f7 f2 26 bd
       0.027139325 -0.055366624 -0.097028196 -0.040759053
0001b0 3f f2 1b 3d f3 2f 99 3d c5 94 34 bc 22 6a c3 3d
       0.03807282 0.07479849 -0.011021798 0.095417276
0001c0 08 22 d1 bd 32 bf c3 bd 7c f6 b6 3d bd 8a 8e bd
       -0.10211569 -0.09557952 0.08933732 -0.06960056
0001d0 3c 68 a4 3d c7 5b ac 3d 8b 1c 87 3d 7f 29 62 bc
       0.08027694 0.08415943 0.06597241 -0.013803839
0001e0 13 4a 86 3b b7 ff 83 3c 94 8b 7b bd b4 84 66 bb
       0.004098186 0.016113145 -0.06141241 -0.0035174312
0001f0 3c 20 16 bd cc 5b 25 3d 2e 47 5b 3c 5c 18 df 3c
       -0.036651835 0.040370747 0.01338367 0.027233295
000200 29 66 87 3b e6 13 70 3d a2 6f a5 bc 6d f0 9e bd
       0.0041320515 0.058612727 -0.020194832 -0.07760701
000210 8d c8 b7 3d aa 34 a8 b9 f1 3a c9 3d d0 b7 aa 3d
       0.08973799 -0.00032082695 0.09825695 0.08335841
000220 74 b8 c4 bd 36 84 1a 3d 0f ee 6e bd d1 54 cc 3d
       -0.09605494 0.037723742 -0.0583325 0.09977115
000230 3e 0d 01 3d 7d 5a 96 3a f2 02 a5 bc d7 5f da 39
       0.03150677 0.0011471059 -0.020143006 0.00041651606
000240 b2 e0 df 3c d3 82 49 bd 89 53 99 3d b3 e5 6f 3d
       0.027328823 -0.04919703 0.07486636 0.058568668
000250 34 d4 39 bd c9 4b 9b 3c 78 77 94 3d 9c 5a e9 bc
       -0.04536839 0.018957036 0.07249349 -0.028485589
000260 be 0c 47 bd 46 cd 42 3c 84 d5 92 bd aa 97 95 3d
       -0.048596136 0.011889761 -0.07169631 0.07304318
000270 50 54 7e bd 1e 12 0b 3d ab 98 da 3c c3 e4 86 bd
       -0.062092125 0.033952825 0.026684126 -0.065866016
000280 5f 3f d5 bc a8 34 6a bb a2 3b 47 bd fd e4 b1 3d
       -0.026031194 -0.0035736952 -0.048640855 0.08686254
000290 b1 65 74 bc 62 87 14 bd a9 f8 8d 3d 35 c0 a0 bd
       -0.014916823 -0.036261924 0.06932194 -0.078491606
0002a0 28 ff 34 3d e1 ed 18 bd f0 6d b0 3c 8c 6b c6 3b
       0.04418865 -0.037336234 0.021536797 0.006055301
0002b0 28 bc 03 bd f9 94 39 3c 10 80 9e 3c 65 9c ce bc
       -0.03216186 0.011327022 0.019348174 -0.02522106
0002c0 44 eb b0 bc b5 98 c2 bb d4 a8 22 3d 1e 19 8c 3d
       -0.021596558 -0.0059386143 0.03971179 0.06840728
0002d0 e2 20 7a 3d 69 ea a9 3d b9 9d 2f bd bd 51 82 3c
       0.061066516 0.08296663 -0.042875025 0.015908116
0002e0 3c 4a a3 bd e1 fa a9 bd df f8 00 bc 63 f3 77 bc
       -0.079731435 -0.082998045 -0.0078718355 -0.0151337115
0002f0 6c 21 1c bd 8f ed 99 bd fe 69 af bd 1a af ba bd
       -0.03811781 -0.07516014 -0.08565138 -0.09115429
000300 04 46 10 bd e5 87 a1 bb c4 d7 92 3d ed a8 3a bd
       -0.035223022 -0.00492953 0.0717006 -0.045571256
000310 58 9b 14 3d fb 93 80 3d ab c6 b8 bd b1 f2 a7 3d
       0.03628096 0.06278225 -0.09022268 0.082005866
000320 66 5e 9e 3d db 2e 6d 3c a2 8c ca bd 3a 4e 39 bd
       0.07732849 0.014476503 -0.09890105 -0.04524062
000330 f9 b9 ad bd 36 d0 b7 bd 7b 04 89 3d 89 cb b2 bd
       -0.08482737 -0.0897526 0.06690308 -0.087302275
000340 fa 15 bc 3d ac 06 88 bc 0e fc 48 bc 2d 76 2e 3c
       0.09183879 -0.016604744 -0.012267126 0.0106482925
000350 6f f8 1d 3d 23 ec 74 3d a3 87 8f bd 14 00 39 bd
       0.038567003 0.05979551 -0.070082925 -0.04516609
000360 61 f7 b4 3c a7 28 be 3d a0 64 3d 3d 7f 2f 50 bd
       0.022090616 0.092850976 0.04623854 -0.050826546
000370 c2 fc 3b 3d 35 68 ba bd 0e 0d 35 bd fe 52 d0 3d
       0.045895346 -0.09101907 -0.044201903 0.101720795
000380 5e bf b3 bd 30 37 70 bc 0e 86 51 3d 97 38 e2 3c
       -0.08776735 -0.014661595 0.051153235 0.027614875
000390 d3 0e 8f 3d 4e b7 bd 3c b5 1d cd bd 39 a1 e9 bc
       0.06985249 0.023158696 -0.10015432 -0.02851926
0003a0 25 2a c4 bd d6 39 25 bd fd 43 75 3d 26 8a 6e bd
       -0.09578351 -0.04033836 0.05987929 -0.058237217
0003b0 c3 cd 3e 3d f3 5c bb 3d 99 dc 49 bc 08 f6 5a 3d
       0.04658295 0.09148588 -0.012320661 0.05345729
0003c0 15 3f 85 3d be 67 5f 3c a3 21 6a 3d cb cb 96 bd
       0.065061726 0.013635574 0.057160985 -0.07363089
0003d0 da ae d3 39 42 bf da bc 61 0a 80 bd 1e 7e b6 3d
       0.0004037533 -0.026702527 -0.062519796 0.08910774
0003e0 ba ff 73 3c ae 97 9d bd ef 5a aa 3d ff db b6 bd
       0.014892513 -0.07694946 0.083181255 -0.0892868
0003f0 bc 65 34 3c 69 5a b7 bc d3 9e 8a 3d c0 92 5b 3b
       0.0110105835 -0.022381978 0.067685746 0.0033504218

linear1.bias f4 [100]
000000 e8 ad a2 3d d3 26 9a bd ab 43 00 bd 3c a3 b8 bc
       0.07943326 -0.075269364 -0.031314533 -0.022538774
000010 9a 40 18 bd 6e 8f 7b bd a5 89 7f 3c 19 00 8b 3d
       -0.037170984 -0.061416082 0.015596782 0.06787128
000020 57 e6 37 bd ff c8 ba bc fe 88 b1 bd 6b 32 fd 3c
       -0.044897404 -0.02280092 -0.08668707 0.03090783
000030 ec 74 c3 3b 94 ab aa 3c 24 f2 a9 3d 0e a2 82 3d
       0.005964866 0.020833768 0.08298138 0.06378566
000040 fd 88 17 3d 46 48 8a 3d 42 54 31 bd db 91 8d 3d
       0.036995877 0.06752066 -0.043293245 0.06912585
000050 ed 2d 4d bd cf fe d7 bb 8c aa a8 bd a7 4c 77 3d
       -0.050092626 -0.006591655 -0.08235654 0.060375836
000060 97 e5 11 bd 91 1e 99 bd 23 4d a6 bd cc 11 20 bd
       -0.035619345 -0.07476533 -0.081201814 -0.039079472
000070 57 ff 8f bd 8b a0 05 3c 59 9f a5 3d 6b d0 99 bc
       -0.07031124 0.008155952 0.08087034 -0.01877614
000080 55 14 5a bc fc 7a be bc b1 d0 ec bc 22 e0 28 3d
       -0.013310512 -0.023252003 -0.028908106 0.041229375
000090 98 77 99 bd cc f9 38 3d 03 1d 28 bd 58 a1 58 bc
       -0.07493514 0.0451601 -0.041043293 -0.013222061
0000a0 a2 ac a6 bc 4b d4 a1 3d a4 84 5e bc 1c b1 1a bd
       -0.02034599 0.0790182 -0.013581429 -0.03776656
0000b0 6e e5 9b bd 77 78 d1 bc 9d 92 a5 bd 9f 5e b1 3d
       -0.076121196 -0.025570137 -0.08084605 0.08660626
0000c0 a2 5b 40 bc 0a 94 9d bc 44 65 aa 3d 08 b5 bf bd
       -0.011740597 -0.01923563 0.08320096 -0.09360701
0000d0 21 a3 86 bd df f9 86 3d 42 19 bb 3d 27 3d 84 bd
       -0.06574083 0.06590628 0.09135677 -0.064569764
0000e0 bf 15 66 3d f9 e7 00 3d 62 3a 89 3d df ad c5 3d
       0.056173082 0.031471226 0.06700589 0.09652304
0000f0 d4 0d 26 3d a6 7b 98 bd 22 40 fe 3c c9 5e 1a bd
       0.04054053 -0.07445459 0.03103644 -0.03768805
000100 b2 79 ca bd 86 86 d9 bc 8c e5 03 3d f1 ca c5 bd
       -0.09886493 -0.026553404 0.032201335 -0.096578486
000110 57 1c a2 3d be 3f 0c 3c 58 03 7d 3d af b4 8c 3d
       0.07915562 0.008560119 0.061770767 0.068704
000120 70 15 84 3d 1b 68 be bd dd 56 bb bd a3 38 97 3d
       0.064494014 -0.092972 -0.09147427 0.073838495
000130 4a 8b 51 bd 59 85 a1 bd b3 b9 84 3c 99 bb 54 3d
       -0.051158227 -0.07886762 0.01620183 0.05193672
000140 fa 7a ed bc 2d 9b c7 bd 6b fc 0b 3d fb b9 a7 bd
       -0.028989304 -0.09746394 0.03417627 -0.0818977
000150 fe 33 d6 bc ab 67 f6 3c 89 c5 9a 3d 63 b4 84 bd
       -0.026147839 0.03007873 0.07557208 -0.064797185
000160 58 87 ab bc ce 98 92 bc ee 0e 2a bb 9f 05 ad 3d
       -0.02093856 -0.017895129 -0.002594884 0.08448338
000170 d2 d3 56 bd 65 d1 04 3d 6c b7 cd bc c1 be cc bd
       -0.0524481 0.032426257 -0.025111876 -0.09997321
000180 e1 14 b7 3d f8 32 33 3c 9b ff 3b bd 7d b9 b8 3d
       0.08939529 0.010937445 -0.04589806 0.09019754

linear2.weight f4 [1, 100]
000000 58 77 4d 3c 43 9b d9 bd d1 90 03 be 88 c3 98 3c
       0.012540661 -0.10625317 -0.12848212 0.018647924
000010 5f ac 68 bd f1 6b 67 bd f4 27 b5 bd 44 58 aa 3d
       -0.05680501 -0.056499425 -0.08845511 0.083176166
000020 3e 0d b3 3d 01 51 c6 bd 92 cb 31 3d b7 7d fe bc
       0.0874276 -0.09683419 0.04340703 -0.031065805
000030 e7 19 85 3c 11 32 e9 3d a6 5c 7c 3d 21 60 81 bd
       0.016247703 0.113865025 0.061611794 -0.06317163
000040 1d bd c6 3c bd 0a 80 bd 81 0d 07 bc 08 e1 b0 3d
       0.024260098 -0.06252048 -0.008242966 0.08636671
000050 ee 5b 5f 3c 78 ac 14 bd 9d a1 af bd 7a c9 96 3c
       0.013632758 -0.03629729 -0.08575747 0.018406618
000060 1b ff 74 bd 08 28 9b bd 92 fa eb 3b ea 34 59 3d
       -0.0598136 -0.07575995 0.007201501 0.05302898
000070 39 4e 30 3c da 07 bf 3d 16 5c bf bd d1 ab 91 bd
       0.010760837 0.093276694 -0.09343736 -0.071128495
000080 39 04 b0 bd 9a b3 73 bd c0 0c 8f 3d 7f ac 3e 3d
       -0.085945554 -0.059497453 0.06984854 0.046551224
000090 79 91 b4 3c a0 02 72 bd b4 90 b8 bd 39 0c df bb
       0.022042023 -0.059084535 -0.09011975 -0.006806877
0000a0 7b d4 aa bd 6d 0d 08 3d 4a 2e a5 bd a5 b6 4a 3c
       -0.08341309 0.03321593 -0.080654696 0.012372647
0000b0 61 ba c1 3d 7f c6 af bd d6 49 c7 bd 38 e4 64 bd
       0.09459377 -0.08582782 -0.0973088 -0.05588171
0000c0 33 29 87 3d 58 3a 98 bc 06 78 5f bd 08 29 8e 3d
       0.06599655 -0.018582508 -0.054557823 0.0694142
0000d0 58 bf e9 3c 74 00 40 3a bd a9 99 bd fe 0a d1 bd
       0.028533623 0.0007324286 -0.07503078 -0.10207175
0000e0 93 95 70 bb 1d de 0e 3d 45 2f 6f 3d b7 b3 f7 bb
       -0.0036710247 0.034879792 0.05839469 -0.0075592655
0000f0 cc fc c0 3d c4 c0 26 3d 86 c4 68 3d 3b 45 3a bd
       0.09423217 0.04071118 0.056828044 -0.04547618
000100 89 77 20 bd 3b 70 88 bd 90 9c ed bb c2 25 1e bd
       -0.039176498 -0.06662031 -0.0072513297 -0.038610227
000110 65 a9 8f bd f4 71 ad 3d 0e 66 ae 3c bf 25 73 3d
       -0.07014731 0.084690005 0.021288898 0.05936217
000120 75 e1 78 3c 31 f6 af bd c8 f9 35 bc a6 a7 29 3d
       0.015190472 -0.08591879 -0.011106916 0.041419648
000130 75 de 93 3d 42 11 37 3c ab 8e dd 3a 05 38 92 3a
       0.07220165 0.011173548 0.001690348 0.0011155611
000140 66 dc 4c bd 66 96 bc bd c2 97 81 3d 44 9f b1 3c
       -0.050014876 -0.09208374 0.06327774 0.02168239
000150 9f 34 dd bc f7 c7 c1 bd 57 e9 08 3d b3 06 47 bd
       -0.02700263 -0.094619684 0.033425655 -0.048590373
000160 f8 32 87 3d 1b f5 d5 3d 35 5f bf bc c1 9b 8d bd
       0.066015184 0.10447141 -0.023360828 -0.06914473
000170 dd ef 79 bd e7 9a a1 3d 8f 62 10 bd 17 68 5b ba
       -0.061019767 0.078908734 -0.035250243 -0.00083696976
000180 06 30 d0 3d 92 c4 d6 bc bf c1 c7 bc ec 39 1c bd
       0.1016541 -0.026216779 -0.024384378 -0.038141176
